backend: tensorflow
class_name: Sequential
config:
  layers:
  - class_name: LSTM
    config:
      activation: tanh
      activity_regularizer: null
      batch_input_shape: !!python/tuple
      - null
      - 50
      - 6
      bias_constraint: null
      bias_initializer:
        class_name: Zeros
        config: {}
      bias_regularizer: null
      dropout: 0.0
      dtype: float32
      go_backwards: false
      implementation: 1
      kernel_constraint: null
      kernel_initializer:
        class_name: VarianceScaling
        config:
          distribution: uniform
          mode: fan_avg
          scale: 1.0
          seed: null
      kernel_regularizer: null
      name: lstm_19
      recurrent_activation: hard_sigmoid
      recurrent_constraint: null
      recurrent_dropout: 0.0
      recurrent_initializer:
        class_name: Orthogonal
        config:
          gain: 1.0
          seed: null
      recurrent_regularizer: null
      return_sequences: true
      return_state: false
      stateful: false
      trainable: true
      unit_forget_bias: true
      units: 50
      unroll: false
      use_bias: true
  - class_name: LSTM
    config:
      activation: tanh
      activity_regularizer: null
      bias_constraint: null
      bias_initializer:
        class_name: Zeros
        config: {}
      bias_regularizer: null
      dropout: 0.0
      go_backwards: false
      implementation: 1
      kernel_constraint: null
      kernel_initializer:
        class_name: VarianceScaling
        config:
          distribution: uniform
          mode: fan_avg
          scale: 1.0
          seed: null
      kernel_regularizer: null
      name: lstm_20
      recurrent_activation: hard_sigmoid
      recurrent_constraint: null
      recurrent_dropout: 0.0
      recurrent_initializer:
        class_name: Orthogonal
        config:
          gain: 1.0
          seed: null
      recurrent_regularizer: null
      return_sequences: true
      return_state: false
      stateful: false
      trainable: true
      unit_forget_bias: true
      units: 50
      unroll: false
      use_bias: true
  - class_name: LSTM
    config:
      activation: tanh
      activity_regularizer: null
      bias_constraint: null
      bias_initializer:
        class_name: Zeros
        config: {}
      bias_regularizer: null
      dropout: 0.0
      go_backwards: false
      implementation: 1
      kernel_constraint: null
      kernel_initializer:
        class_name: VarianceScaling
        config:
          distribution: uniform
          mode: fan_avg
          scale: 1.0
          seed: null
      kernel_regularizer: null
      name: lstm_21
      recurrent_activation: hard_sigmoid
      recurrent_constraint: null
      recurrent_dropout: 0.0
      recurrent_initializer:
        class_name: Orthogonal
        config:
          gain: 1.0
          seed: null
      recurrent_regularizer: null
      return_sequences: true
      return_state: false
      stateful: false
      trainable: true
      unit_forget_bias: true
      units: 50
      unroll: false
      use_bias: true
  - class_name: Dense
    config:
      activation: sigmoid
      activity_regularizer: null
      bias_constraint: null
      bias_initializer:
        class_name: Zeros
        config: {}
      bias_regularizer: null
      kernel_constraint: null
      kernel_initializer:
        class_name: VarianceScaling
        config:
          distribution: uniform
          mode: fan_avg
          scale: 1.0
          seed: null
      kernel_regularizer: null
      name: dense_7
      trainable: true
      units: 1
      use_bias: true
  name: sequential_7
keras_version: 2.2.4
